Model: "sequential"
_________________________________________________________________
Layer (type)                 Output Shape              Param #   
=================================================================
input_layer (Conv2D)         (None, 128, 128, 32)      28832     
_________________________________________________________________
conv2d (Conv2D)              (None, 128, 128, 32)      9248      
_________________________________________________________________
conv2d_1 (Conv2D)            (None, 128, 128, 32)      9248      
_________________________________________________________________
conv2d_2 (Conv2D)            (None, 128, 128, 64)      18496     
_________________________________________________________________
conv2d_3 (Conv2D)            (None, 128, 128, 64)      36928     
_________________________________________________________________
conv2d_4 (Conv2D)            (None, 128, 128, 8)       4616      
_________________________________________________________________
conv2d_5 (Conv2D)            (None, 128, 128, 4)       292       
_________________________________________________________________
conv2d_6 (Conv2D)            (None, 128, 128, 1)       37        
_________________________________________________________________
flatten (Flatten)            (None, 16384)             0         
=================================================================
Total params: 107,697
Trainable params: 107,697
Non-trainable params: 0
_________________________________________________________________
Training examples: 1000
Batch size: 50
Epochs: 5
Learning rate: 0.01
Average accuracy over 100 testing sequences: -0.5669326479003424
Average difference over 100 testing sequences: 10.02
…
